models/decoder.onnx (onnx, 515886 bytes, 13 tensors)

embed.weight f4 [59, 200]
00000000: add6 1bbe 4899 d53f f853 c43f 2069 1c3f
00000010: ad6d 89bf ab6d 1b3f 3405 203e 5124 33bf
00000020: 9c59 cf3e af76 ad3d 5c6f cd3d 75be 343f
00000030: 3ef1 a1be 4a49 cd3f 55e9 2540 85ee 203f
00000040: 354e 203f 8427 643f fd40 633f 5b22 953e
00000050: d0eb 97bf ca64 723e e754 3bc0 4a6d 0a3f
00000060: aac6 07c0 66a4 603e 37da a9bd 9e32 d23d
00000070: 13cb 9a3e 3d81 92bc 2f87 213f 5bfe 0c40
00000080: 0882 f4bf d31a 44bf 8f06 cc3f 5c12 083e
00000090: 0306 3b3f 6eb7 623e 18e9 b3bf 0ba8 75bf
000000a0: 8527 5cbf 5252 553f c685 ca3f e1a2 183f
000000b0: 82f5 5e3f c5f3 8c3f 321c 833f d5f3 40bf
000000c0: d0e1 313e e7c5 a7bd fb7b 27bf c066 4b3f
000000d0: 61b6 983e 3066 9bbf 6fd3 1b40 ffe4 c03f
000000e0: e8f8 9a3e 5c66 e13d 32f3 3fbf e725 9c3f
000000f0: 92e2 a93f c26f e43f 797b c5bf d73e f3bf
00000100: d20e 96bf eb64 ce3f de92 a23f 73aa 51bf
00000110: 3abf f2be bdf1 243e 40b4 b33f ec7a a0be
00000120: 5b4d 173e f2ad ddbf 7d5f c7be 30f6 5abf
00000130: 459f a73f ad88 3c3f 6e04 423d b36e f0bf
00000140: 3e35 30bb afbf 063f 4689 51bf cee5 debe
00000150: d19f 923f f4d6 2f3f a9e7 dabe 6aef 6a3f
00000160: e040 823f 7b95 433e 55c0 b13e 3393 5e3e
00000170: 810a b0be 2d0e 37bf e7b1 e53f ad14 1e3e
00000180: 8bfa e33f 27ec 893e 29dd 333f 5b98 ee3f
00000190: 9fff abbd 3f29 23bf 5724 803f 24ea 3fbf
000001a0: 646d c03f 0590 e8bf fe2d 19bf c6b7 763e
000001b0: 05c9 a7bf 6e0e db3e 55e9 943e 3a10 54bf
000001c0: 37e6 3bbf 2e20 5f3f e958 6bbf 79b4 44bf
000001d0: b735 88bf d4a1 543f 7d6a 2abd 9060 a6bf
000001e0: 2e09 2fbf 98e3 f83e ffb0 22bf e9ce 0ebf
000001f0: 91b8 bebf 0803 a73f 78ce 153f 3fa3 0dc0
00000200: 9e89 0a40 ac3a 383e 6366 fa3e f812 f3bd
00000210: cb50 56be 4383 273f 6836 c2be b3ff 913f
00000220: 9104 f1be 2c04 cf3e e92c 473f 02a3 ca3e
00000230: 2845 f2be 5b9e ecbe 396f 033f e218 863f
00000240: 8373 873d 6ffc 05c0 deb7 aebf 568a 12bf
00000250: a5cd babf 00d2 3d3f a212 353f b960 7a3e
00000260: b78f cbbf 3a60 4d3f ea35 8fbf 0bfa 30be
00000270: 5156 533c 44bf f03e a013 18bf 48be 3fbe
00000280: a9c1 98be c75e fa3d 4946 cabf 95be e9bd
00000290: 889a 0d3f 6d5e 53be 5727 fe3f 6976 843f
000002a0: 8a31 343e 6a7f c0bd dbda 353f 1f21 58bf
000002b0: 6307 9b3f 9bfd 9dbe 6c35 e8bd e258 b83e
000002c0: 6028 24bd 4c2b 3abf 0030 91be 79f7 78bf
000002d0: c708 a6be b113 d23b a6a5 38bf 356f 5cbe
000002e0: 2486 833f fea9 d53f 135a d93e 8251 1abf
000002f0: f7d2 fa3e 2e47 cbbe 8135 43be 906a 073f
00000300: 7191 0abf 9594 1a3f 8c47 883f 8275 03c0
00000310: eadd 6a3f 778c fe3e bdb7 2140 60d1 8fbf
00000320: b485 7dbf addb 313e 2ee5 3f3f d1a5 863f
00000330: d1f4 18bf 5fcb 793e 6e94 653f 4c9c 493f
00000340: 5117 553f 2043 98bf 266e 16bf 1d7a 073e
00000350: 2cdb 93bf 13ad 753f 1348 c93e 28d2 8bbf
00000360: a693 d63f 2766 083f d40d f4bf 2ff4 81bf
00000370: cfbe 21bf 2d09 853f d0f8 aebf bd28 06bf
00000380: 06b2 c5bf 78aa d63d 237a f9bf c184 513d
00000390: 152b 75bf f067 a33e 5c29 463f af42 0140
000003a0: 17fe a9bf bfec 90bf 03c2 eb3e 631c bb3f
000003b0: 1ea0 673f 7ad4 3b3e 8a2f 573f f87a babf
000003c0: a199 09bf a549 a33f d11b 953e 9467 7b3e
000003d0: b72b c63e 8f9b 2ec0 4860 df3e a6e6 79be
000003e0: 5892 c4bf cc58 c5be b657 9c3d e5e7 a63f
000003f0: 8df1 343f a2ee 503e e9ff ba3f 56a3 0bc0
-0.15218611 1.6687403 1.5338125 0.6109791 -1.0736595 0.60714215 0.15626985 -0.6997729
0.40498054 0.08469903 0.10031006 0.70603114 -0.31629366 1.6037991 2.5923665 0.6286395
0.62619334 0.89122796 0.8877104 0.29127774 -1.1868839 0.2367126 -2.927057 0.5407301
-2.1215005 0.21937713 -0.08293574 0.10263561 0.30233058 -0.017883891 0.630969 2.2030246
-1.9102182 -0.7660343 1.5939502 0.13288254 0.7305605 0.22140285 -1.405551 -0.9595954
-0.859978 0.83328736 1.5822074 0.59623533 0.87093365 1.1011893 1.024298 -0.7537206
0.17371297 -0.08192044 -0.65423554 0.7945366 0.29826644 -1.214056 2.43478 1.5069884
0.30268025 0.110058516 -0.7498046 1.2199067 1.3272269 1.7846606 -1.5428306 -1.9003552
-1.1723273 1.6124548 1.270107 -0.8190071 -0.4741152 0.16107841 1.4039383 -0.31343782
0.14775603 -1.7318709 -0.3894004 -0.855319 1.309548 0.7364605 0.047367506 -1.8783783
-0.0026887204 0.52636236 -0.8185009 -0.43534702 1.1455022 0.6868737 -0.42754868 0.91771567
1.0176048 0.19099991 0.3471705 0.2173584 -0.34383014 -0.71506006 1.7944916 0.15437575
1.7810835 0.26937982 0.7025934 1.8640245 -0.08398365 -0.6373481 1.001109 -0.74966645
1.5033383 -1.8168951 -0.59835804 0.24093542 -1.3108221 0.42784446 0.29084268 -0.8283726
-0.73398155 0.8715848 -0.9193254 -0.7683788 -1.0641392 0.8305943 -0.04160546 -1.2998219
-0.6837338 0.4861114 -0.63551325 -0.5578447 -1.4900075 1.30478 0.5851817 -2.2130888
2.1646495 0.17991132 0.4890624 -0.118688524 -0.20929258 0.65434664 -0.37932134 1.1406158
-0.47073796 0.4043287 0.778029 0.3957749 -0.47318387 -0.46214566 0.5134159 1.0476344
0.06613829 -2.0935323 -1.3649862 -0.57242334 -1.4594008 0.7414856 0.70731556 0.2445096
-1.5903233 0.80224955 -1.1188328 -0.17282884 0.012898997 0.47020924 -0.59404945 -0.1872493
-0.2983525 0.122251086 -1.5802699 -0.11413304 0.5531392 -0.2064149 1.9855756 1.0348636
0.17597023 -0.09399302 0.7103707 -0.8442554 1.2111629 -0.30857548 -0.113383144 0.36005312
-0.040077567 -0.72722316 -0.28356934 -0.97252613 -0.32428572 0.006411039 -0.7212776 -0.21526797
1.0275311 1.6692502 0.42451534 -0.6028062 0.48989078 -0.39702743 -0.19063379 0.52896976
-0.54128176 0.6038297 1.0646834 -2.054047 0.91744864 0.4971654 2.5268395 -1.1235771
-0.9903214 0.17368956 0.74959075 1.0519353 -0.5974856 0.24393986 0.8967961 0.78754115
0.83238703 -1.1895485 -0.58761823 0.13230176 -1.1551261 0.95967215 0.393128 -1.092351
1.6763809 0.5328087 -1.906672 -1.0152644 -0.63181776 1.0393425 -1.3669682 -0.5240591
-1.5444953 0.10481733 -1.9490398 0.051151995 -0.9576886 0.31915236 0.7740686 2.019695
-1.3280667 -1.1322249 0.46046457 1.4618038 0.90478694 0.18342772 0.84056914 -1.4568777
-0.53750044 1.275685 0.29122785 0.2455123 0.38705227 -2.7282445 0.43628144 -0.24404392
-1.535716 -0.3854431 0.07633917 1.3039519 0.7068108 0.20403531 1.4609348 -2.1818442

i2h.weight f4 [100, 300]
00000000: d247 ed3a 979b 31bd c939 a73d d8cd 1ebc
00000010: af49 5a3d 9a3f 543d 5ddc 24bd c653 96bd
00000020: 8747 ee3c eee5 743d 6f52 75bc 1f39 053d
00000030: e0d3 b53d 5d8d ee3c cfda 41bc 563c afbb
00000040: 5a16 cbbc 4ec7 f93c 0180 a53d 578f 25bc
00000050: f7f8 8bbc fafc 30bc eec9 9bbc 532e 2cbd
00000060: f1b3 b0bc b6f2 a0bd 130a 49bd 85b8 2fbd
00000070: df4f 943d 05d0 243d bbd7 c2bb 564e bb3c
00000080: bc3e 11bd 4436 78bd a06b 9d3d 276a 343d
00000090: 3fa6 cfbc f060 8dbc 5a3b 8e3d 1237 11bd
000000a0: cd98 e93c e534 c93c 38fd 413c 7b52 9cbc
000000b0: 5f1c 9cbc 4dfa 2f3d 366b 5e3d fcdf 6cbd
000000c0: 1289 53bd 796d 073d 08f1 853c 535f d9bb
000000d0: 011a 45bd 56fe db3a 91e4 83bd b2d6 c73c
000000e0: 8c0e 073d 1d87 4abd 2d6d 91bc 0aea f4bb
000000f0: da93 a0bb 7cc3 e43c 7bc1 31bd 3916 4fbd
00000100: 1ca8 fdbc 5b37 5ebc 8a20 0dbc 023d 55bd
00000110: 63ce debc f52a 52bd 902f 2cb9 99a2 343d
00000120: 8f1d 253d c090 943d 4df4 033d 5b7f 4ebc
00000130: 1c33 1e3d f6f2 0ebd 2cf7 dbbc ac50 12bd
00000140: c1b8 4e3d 0678 5fbc 39c0 1e3c cfd8 81bc
00000150: 62c4 893d 9376 1e3d 0141 1f3d 972c 3f3c
00000160: 6bc1 81bc 2161 963d 0468 b2bd 15ad 62bd
00000170: 76a0 6e3d 3155 a0bd 58fa 9e3c e806 563d
00000180: 43a8 3bbc 6a8d 193d fd87 503d 382e 57bd
00000190: 30d4 3fbd 042c 023d 3add 053d d5a3 95bd
000001a0: b516 023c c7a2 bfbb 726a a7bc 5b97 44bc
000001b0: 2352 c33c 1e38 643d ee8f 70bd 9f6b b5bc
000001c0: 0d2f 0cbd b844 643d 2e76 29bd 428a a0bd
000001d0: 2ba0 7f3c d897 0f3d 49d6 303d 1422 85bd
000001e0: b525 b33c 6a31 413b 6c46 cc3c 411e 773d
000001f0: 2021 353d 8a85 9ebc 5147 f93c 13a8 8d3b
00000200: 5877 933d 50a8 773d fec6 3cbd 042d 92bd
00000210: ae13 abbc 2fb6 37bd 8bee 0cbc c913 b4bc
00000220: c93f cfbc c5f8 c23c e33a 833d f1fc 513d
00000230: 8f7a e73c b6b8 8abd dc4d 21bd 38b8 9ebb
00000240: 1468 90bc 4e04 dc3c 1f60 1e3d 2eba ddbc
00000250: 321c 003d fb10 42bd 23d5 0f3c 5a26 393c
00000260: 76d8 9fbc ff8a 243d d6f1 423d 421d 4b3c
00000270: 0ba9 53bd 407b ab3d 8299 bfbd 8254 3a3d
00000280: 27af 323c 6804 85bd c03a 1ebc 0885 c73c
00000290: bba8 3e3b 2fad 653c e156 293d 02c1 14bc
000002a0: edbe 9fbd 664f 97bc 5c43 f3bc 6e54 9b3b
000002b0: 77b9 8b3b 1cbf 653d f53b 2139 532e 27bd
000002c0: 6248 9e3c 3208 ae3c bc83 81bd 6b5b 383d
000002d0: 376c f13c f665 993b 7e68 83bd 69f4 a73c
000002e0: a419 9b3d e6f8 febc 629b 963d 8262 893c
000002f0: 7609 af3d 71f4 6f3d 70ef 103d 0274 1c3d
00000300: 9f9b 0e3d e577 a53c 5175 c23c f7ec 493d
00000310: 8f97 d43c 464e 21bc 1f6e 92bc b5d8 b33c
00000320: 6882 17bd 5a9a e6bc fe10 62bd aacb 1f3d
00000330: ba67 f43c 4da6 963c fbe2 9abd 61ec 90bc
00000340: 4a5c 823d f24f 92bc ad00 063a c88f 503d
00000350: 9ab6 263c 7e6f 0cbd ad1d d13c 6501 3cbd
00000360: 195c 87bd 7c59 a83d 28e0 be3b 838b 003c
00000370: c244 0c3b a162 85bb d1e6 b7bc 1e20 17bd
00000380: da7a 683d fb63 f93c 1919 693d 6239 9abd
00000390: 34fc 713d b960 603d 9ab9 f4ba e849 09bc
000003a0: c15e c7bc 8fb4 e9bc d90f 703d c02f a43c
000003b0: 18b3 a93c 7cb4 c039 5072 423d b558 a03c
000003c0: bccc 343d 50f3 6bbd e2b6 a2bc 2692 cebb
000003d0: 1032 693d 4809 ed3c 260f c13b 4b54 0b3d
000003e0: c8b7 cd3c a480 75bc b4f7 063d d2c2 323c
000003f0: 4a4b 253d 21f0 2ebc 8bb7 9abd 64e2 913b
0.0018103069 -0.043361273 0.081653185 -0.009692632 0.053292926 0.051818468 -0.040249217 -0.07340197
0.029086841 0.05978959 -0.014973267 0.032525178 0.088783026 0.029120142 -0.011831953 -0.005347769
-0.024790931 0.030490544 0.080810554 -0.010104976 -0.01708649 -0.010802502 -0.019017186 -0.042036366
-0.021570178 -0.078587934 -0.049081873 -0.04290058 0.07241797 0.040237445 -0.005946127 0.022864502
-0.03546022 -0.060598627 0.076865435 0.044046547 -0.025347827 -0.017258137 0.06944914 -0.03545291
0.028515244 0.024561355 0.011840157 -0.019082299 -0.019056497 0.042963315 0.054301463 -0.057830796
-0.051644392 0.033063386 0.016350284 -0.006633678 -0.048120502 0.0016784172 -0.0644008 0.024394367
0.032972857 -0.04944526 -0.017752254 -0.0074741887 -0.004900438 0.027925245 -0.043397408 -0.050558303
-0.03096395 -0.013563002 -0.008613715 -0.052060135 -0.027198022 -0.0513105 -0.00016420917 0.044100378
0.040311392 0.07254171 0.032215405 -0.012603606 0.03862296 -0.034899674 -0.02685126 -0.035721466
0.050469164 -0.013639456 0.009689384 -0.015850453 0.0672691 0.0386873 0.038880352 0.011668346
-0.0158393 0.073427446 -0.08711246 -0.055340845 0.058258496 -0.07828749 0.019406483 0.05225268
-0.011453691 0.03748838 0.05091094 -0.052534312 -0.046833217 0.031780258 0.03268168 -0.07306639
0.007939984 -0.005848262 -0.0204365 -0.011998977 0.023842877 0.05571758 -0.058731012 -0.022146044
-0.03422456 0.055729598 -0.04137247 -0.078388706 0.015602152 0.03505692 0.04317311 -0.065006405
0.021868566 0.0029478916 0.024935924 0.060331587 0.044221044 -0.019350786 0.030429514 0.0043230145
0.072004974 0.06046325 -0.04608821 -0.07137492 -0.020883407 -0.04485148 -0.008601795 -0.02198209
-0.02529897 0.023800263 0.06407716 0.051266614 0.028256683 -0.06773512 -0.039380893 -0.004843738
-0.017627753 0.026857521 0.038665887 -0.027066316 0.03127689 -0.047379475 0.008778843 0.011300648
-0.019512396 0.04017162 0.047593914 0.012397112 -0.051674884 0.083731174 -0.09355451 0.04549075
0.010906017 -0.06494981 -0.009657562 0.024355426 0.002909227 0.014018341 0.04134262 -0.00907922
-0.07800088 -0.018470477 -0.029695205 0.0047402894 0.0042640525 0.05609046 0.00015376492 -0.040815663
0.019321624 0.021244142 -0.063239545 0.045009058 0.029470546 0.004681344 -0.06416415 0.020502286
0.0757325 -0.031124543 0.07353856 0.016770605 0.085467264 0.058582727 0.035384595 0.03819657
0.03481638 0.020198772 0.023737581 0.049298253 0.025951175 -0.009845322 -0.017874775 0.02195392
-0.0369896 -0.028149772 -0.055191986 0.03901259 0.029834617 0.018389845 -0.07562824 -0.01769084
0.06365259 -0.017860387 0.0005111795 0.05091837 0.010175372 -0.034286015 0.025526846 -0.045899767
-0.06609363 0.08220193 0.0058250614 0.007845762 0.0021403288 -0.0040705954 -0.022448929 -0.036895864
0.056757785 0.030443182 0.0569087 -0.07530476 0.05907841 0.054779742 -0.0018671036 -0.008379437
-0.024337174 -0.02852848 0.058608864 0.0200423 0.020715281 0.00036755565 0.0474723 0.019573549
0.044140562 -0.057605088 -0.019862596 -0.0063040433 0.05693251 0.02893509 0.0058916984 0.034015935
0.025112048 -0.014984284 0.03295107 0.010910707 0.040355004 -0.010677368 -0.07554539 0.0044520367

i2h.bias f4 [100]
00000000: e6b8 fe3b f8d5 20bd 88b4 bc3c b099 0d3d
00000010: 5add fbbc 5cdf ce3c 3e44 5b3d f886 dd3c
00000020: f805 a7bc a3a2 38bd dfec bd3c f8df 983c
00000030: d977 4c3d 3bd1 f0bb e851 a3bc 2c25 5c3c
00000040: e9e1 50bc 6c93 9cbc 94dc 9d3b b784 fe3c
00000050: bf39 42bd 2a66 f13c bb6d 26bc 4cd0 0f3d
00000060: 406d 16bd 7f10 5bbd b6d7 ba3c 4d89 0bbd
00000070: a641 183b 86aa 9dbc 94d4 bfbb ba94 dc3c
00000080: 7a4b 54bd 9d26 1f3c 0158 d83c 609a f53c
00000090: d4b7 603b 1fc2 b23b 8db8 46bd 426a 3e3d
000000a0: cbe6 173d 4ab2 803d 23d9 c4bc 24bf 9ebb
000000b0: 07bc b0bc ca36 223c 0247 30bd d57b 9dbc
000000c0: c10f 2a3d 4825 dbbc 783d b2bc ce9b 10bd
000000d0: 045c 39bd 5bbb e8bc 9456 fc3c 4b99 4e3d
000000e0: 5d22 32bc bdf2 553c 81b0 353d e9d5 4bbd
000000f0: 0d1e 233c a124 fdbc ea97 a33c f408 3e3d
00000100: b29d 34bd d299 803d 9f08 623d c539 413d
00000110: 49bc 84bd 4f30 633d e9e0 60bb bdba 2f3c
00000120: 8656 413d 25df 5a3d ad26 16bd 58c9 4abd
00000130: 16d0 c53c 9b45 3d3c 65a8 2bbb 3894 213d
00000140: 995c a53c 1aaf 233d 5181 c33c 3752 bcbc
00000150: 2854 1fbd fa55 79bc 8e2d 013c c8e5 c1bc
00000160: 6b4f 97bb dacb 3fbd 95f7 073d 57fd 3ebb
00000170: 9db5 88bb 9c96 363d fd09 18bd b485 303a
00000180: 05d1 883c 1261 b5bc e394 bb3c 0bb4 babb
0.0077735065 -0.039266557 0.023035303 0.034570396 -0.030745197 0.02525299 0.053531878 0.027041897
-0.020388588 -0.045076977 0.023184238 0.018661484 0.049918983 -0.007349161 -0.019936517 0.013436597
-0.012749174 -0.019113265 0.0048175547 0.031069143 -0.047418352 0.029467661 -0.010157998 0.035110757
-0.036725283 -0.05348253 0.022807937 -0.034066487 0.002323249 -0.019246351 -0.0058541987 0.026926387
-0.051829793 0.009713796 0.026409151 0.029980838 0.0034289258 0.00545527 -0.048515845 0.046488054
0.037085336 0.06284006 -0.02402932 -0.004844563 -0.021574033 0.009900758 -0.04303647 -0.019224087
0.04151893 -0.026751176 -0.021757826 -0.035304837 -0.04525377 -0.02840965 0.030803002 0.05043916
-0.010872451 0.013058362 0.04435778 -0.049764547 0.009955895 -0.030901255 0.0199699 0.046395257
-0.044095702 0.06279339 0.055184003 0.047174234 -0.06481225 0.055465993 -0.0034313744 0.010725674
0.047201656 0.053435463 -0.036657978 -0.049508423 0.024147075 0.01155224 -0.00261929 0.039447993
0.020185756 0.03996191 0.023865374 -0.022988422 -0.038898617 -0.015218252 0.007884396 -0.023669139
-0.0046176217 -0.046825267 0.033195097 -0.0029142702 -0.0041720406 0.044577226 -0.0371189 0.00067337905
0.01670123 -0.022141013 0.022898143 -0.0056977323

i2hs.weight f4 [100, 300]
00000000: a4c1 503b 8102 1abd 914d cb3c f3ee aebd
00000010: 3d05 113d 54f7 813c fa16 393d d0f5 31bd
00000020: 1fb0 01bd e700 a33b b02d f83b 31fc 27bd
00000030: 131f 9fbd caaf 67bd 20cc d839 0a6e 963d
00000040: 7929 dd3c f179 db3c a10e 46bd 3b8a 41bc
00000050: cf7b 963c 06c2 233d 7ee8 133d 147d 9f3d
00000060: abaa a63c 41fb 53bd a45c 9ebc e68d 683c
00000070: 66b3 d8bc 03b8 1f3c ac4b 663d 56fe 12bb
00000080: bd4f f33c 9251 ad3d 84ee 95bc 7124 203d
00000090: 28ba 5fbd e963 b9bd fb79 aebc f80f 83bd
000000a0: cfaf a23d 261f 393c ae99 d13c 7051 763d
000000b0: 7f6c 8fbc 71aa 033d 847f 433c 88a4 3e3d
000000c0: 6796 85bb 362c b9bd cd0b 853d f2eb 9e3d
000000d0: 8a6f 62bd 964c 5fbd 09b7 34bd 6e73 c2bd
000000e0: c26f 033d a24c 2e3c 7e42 df3c e4e0 143c
000000f0: f6cb 39bc 5f9a 1b3d 09fd 8cbc 4422 87bd
00000100: 9dbb 39bc 65ec 17bd 827f fd3b e9fa 63bc
00000110: 928d 543c 2cd2 8dbc 9eb8 d4bc 2186 bcba
00000120: 7fa6 5ebc ea65 5e3c ff1b 793c ff35 b03c
00000130: 5747 ef3c 29f5 d63c c746 2f3d ca99 cfbc
00000140: 1575 083b aeb2 483b 52b5 a8bc b177 44bd
00000150: 5eaf 043d eaef 41bc 9a7a c33b 911c 4b3d
00000160: cd78 bfbc efc3 0fbd 365c 9fbd bf79 ad3c
00000170: c8c3 cd3a 4dd9 17bb efac 0d3c a537 373d
00000180: a65a 0cbb 53ae 55bd 6852 913d 1084 67bb
00000190: 4702 8cbd 6145 95bc 8cf1 1e3d 58c5 373d
000001a0: 5d27 ba3b 2c41 123d 4e67 09bd 4534 4a3c
000001b0: e703 75bc 4266 0f3d 0fe8 593c 5f8e be3c
000001c0: 0283 99bc a33f 053b cc01 c73c fa3c 48bb
000001d0: 38db 9f3c 93e9 d6bc 7c42 df3c 8b9d 5f3c
000001e0: e14a 97bc 5675 ed3c 3e1d 33bd 9ab0 a23c
000001f0: 03ea e5bc cbf5 07bd 5d19 a1bc 653e 723c
00000200: 56d2 893d 6647 083d dc21 8dbb 9a76 8bbc
00000210: a33b 0fbd 91e0 c0bc 44d5 97bd 0942 413d
00000220: 1064 70bc 40c0 0d3d b315 e3bc 4c2a a7bc
00000230: 8764 0e3d 217e 2a3d 57e4 0f3d 4f9c 78bd
00000240: d87b 2f3d d936 ecbc dbd3 c33c 7395 be3b
00000250: 2a5d 2bbd 3e46 a4bc 53a8 4a3d b1e4 5f3d
00000260: c78c a9bd 1a21 acbc 39f4 2c3c efc7 30bd
00000270: 1c0c 4e3d 8827 283d 3535 a23d 1532 1b3d
00000280: fad6 93bc 844d 26bd cb40 cfbc f9b4 6ebd
00000290: f2ce 8dbc a47c c9bc 916b 22bd f711 f2bc
000002a0: 4f10 e939 ffc2 68bd 0475 063d a67c ea3c
000002b0: f98c 2ebd 74d3 663d 7da4 b8bc ab34 103d
000002c0: beda 1bbd 6679 d93d 5e2d 663d 0265 d6bc
000002d0: c85b 063d af4d f7bc ebf3 373d 3480 a43d
000002e0: 2201 12bd 1834 893b efb7 2cbd 250f c2bc
000002f0: 119c adbc 101d 26bd de42 93ba a7c0 1d3d
00000300: 19df 293d f33c 173d d0d2 a13b dd46 c13c
00000310: 0494 503d 7d30 333c 98db 55bd 107c 9cbb
00000320: 17af 89bd 1f0e 103d d435 6e3d 218b d43c
00000330: 632f c93b 4cf6 0ebd 74f2 4fbc 1fe0 663d
00000340: 3b47 c13c ad9e 0cbd 6bcb 15bd 5639 643b
00000350: 6f85 06bd 14ee e03c b7d3 063d df8b 8dbd
00000360: 072d 4b3c c597 62bd 4c1f 8bbc 2f0d 52bd
00000370: 2441 b23d e8e3 303d 791e 3a3c ab55 0ebd
00000380: 2bd2 0cbd 7aef 6e3d 0e8b 74bd 41d1 7e3c
00000390: 4a73 0e3d 70dd 8fbd 692d 8e3d 6764 46bc
000003a0: 3b8e 5cbd 0b20 3dbd 1f06 dfbc 45f2 a8bc
000003b0: 74a0 1e3c d5d8 04bd 700c 7f3c 981c a1bd
000003c0: 61ef 1d3d 2c5d 74bd 1418 853d 6374 3cbc
000003d0: 200c 4a3c 872a a83d c028 b13c 5793 893d
000003e0: a7a7 2bbd da83 6fbc 8f2c babc f632 393d
000003f0: 413f ba3c 22fe 53bc 2daa 113d a1c8 96bd
0.00318537 -0.037600044 0.02481726 -0.0854167 0.035405386 0.015865006 0.045187928 -0.043447316
-0.031662103 0.004974473 0.0075738057 -0.041011993 -0.07769599 -0.05656413 0.00041350815 0.07345207
0.026997315 0.026791545 -0.048353795 -0.011812742 0.018369583 0.039979957 0.036110394 0.07787529
0.020345053 -0.051753286 -0.019331284 0.0141939875 -0.026452731 0.009748462 0.05622451 -0.0022429428
0.029701108 0.08462824 -0.01830221 0.039097253 -0.05462089 -0.090522595 -0.0212984 -0.0639953
0.07943689 0.01129893 0.025585975 0.06013626 -0.01750779 0.032144967 0.011932258 0.046543628
-0.0040767672 -0.09041636 0.064963914 0.07759847 -0.055282153 -0.054516397 -0.04411987 -0.09494673
0.032089002 0.010638388 0.027253386 0.009086821 -0.011340132 0.037989017 -0.0172105 -0.065983325
-0.011336234 -0.037090678 0.0077361474 -0.013914802 0.012973206 -0.017312132 -0.025966939 -0.0014383235
-0.0135895 0.013574103 0.015204429 0.021510122 0.029208822 0.026239948 0.042792108 -0.025341887
0.002082174 0.003062408 -0.020594273 -0.04796571 0.032393806 -0.011836985 0.005965543 0.04958779
-0.023373032 -0.035098966 -0.0778126 0.021176217 0.0015698606 -0.0023170293 0.008647188 0.0447308
-0.0021416335 -0.0521682 0.07095796 -0.0035326518 -0.06836372 -0.018221559 0.038804576 0.044865936
0.005680962 0.035706684 -0.033545785 0.012341564 -0.014954544 0.03500963 0.013299956 0.023261247
-0.018739227 0.002033212 0.024292849 -0.0030553923 0.019513711 -0.026234424 0.027253382 0.013648401
-0.018468322 0.028986614 -0.04372906 0.0198596 -0.028065687 -0.03319339 -0.019665414 0.014785384
0.067295715 0.033271216 -0.004307015 -0.017024327 -0.034968983 -0.023544582 -0.07413724 0.047182117
-0.014672294 0.034607172 -0.027720308 -0.02040591 0.03476384 0.041624192 0.03512987 -0.060695942
0.042842716 -0.028834747 0.023904731 0.0058161556 -0.041836895 -0.020053025 0.049476933 0.054661456
-0.08278804 -0.021011878 0.010556274 -0.04315942 0.050304517 0.041053325 0.07920305 0.03788956
-0.018046845 -0.04060127 -0.02529945 -0.058278058 -0.017310593 -0.024595566 -0.039653365 -0.029549582
0.00044453374 -0.056826588 0.03282644 0.02862389 -0.04261491 0.056354 -0.022539372 0.035206478
-0.038050406 0.10618858 0.05619561 -0.026171211 0.032802373 -0.03018841 0.044910353 0.08032265
-0.03564561 0.0041871183 -0.0421676 -0.023688862 -0.021192582 -0.04055506 -0.0011235138 0.038513806
0.041472528 0.03692336 0.004938461 0.02359336 0.05092241 0.0109368535 -0.052211374 -0.0047755316
-0.06722849 0.035169717 0.058156803 0.025945248 0.006139682 -0.034902856 -0.012692083 0.056366082
0.023593536 -0.034331013 -0.036570948 0.0034824214 -0.032842096 0.027457274 0.03291675 -0.06911444
0.012400872 -0.05532052 -0.016982697 -0.051282104 0.08703831 0.0431861 0.011359804 -0.034749668
-0.03438012 0.05833385 -0.059702925 0.01555282 0.034777917 -0.07024658 0.06942255 -0.012108899
-0.05384658 -0.046173137 -0.027224598 -0.020623336 0.00968181 -0.03243335 0.01556693 -0.07866782
0.038558368 -0.059659168 0.06498733 -0.011502358 0.012331992 0.082112364 0.021625876 0.06717556
-0.041907933 -0.014618838 -0.022726325 0.045214616 0.02273524 -0.012939008 0.035562683 -0.07362486

i2hs.bias f4 [100]
00000000: a2e2 97bc c04b c93c 6b31 0c3d 7fd2 e8bc
00000010: 5eee 88bc 323f 6cbd 9dda 0e3d d4e2 23ba
00000020: 8343 033d e892 8bbd 539b e0bb d6d6 3bbd
00000030: 043e f63c 3ca5 6c3d 599e 0d3b b941 dd3c
00000040: f3b7 ea3c aa2b a03d 7a94 b33c cfa9 193d
00000050: 29ea c53b 5d8f 033d 5629 32bd 1570 633c
00000060: 0fc9 68bd 6689 3e3d 4272 723c 6b07 eebc
00000070: 1145 3abd b735 15bd b0a6 0d3c 51cb 0c3d
00000080: f651 683c ca19 5c3d fc0e 973d 673a 0abd
00000090: 070f bdbd 3afe a23c 6586 5f3d 5362 2ebd
000000a0: 8fd4 52bc 56a1 0bbc 1599 c5bc 6381 6e3c
000000b0: 3e78 3a3d 2330 c93d 3ad7 19bd 36f8 80bc
000000c0: 863f 803d 49fe 2ebd be07 50bd 5f1b ee3b
000000d0: 5e57 49bd d597 173d c68a 48bd 9089 f33c
000000e0: cb6b 7a3c 3565 3cbd 1f76 5b3d ce55 3abd
000000f0: cca1 853d 4610 623d ec86 3d3c bcc1 503d
00000100: 387c 81bd 434f 24bc 049d 2dbd be66 22bd
00000110: c493 363b 6400 353d 8f5a 9dbd f368 883d
00000120: f567 99bb 813e 633c b361 783c ff04 9cbd
00000130: 9d2d 54bc aa72 343c bdb0 48bc 4945 aebc
00000140: 5814 683d a132 8bbd 2cc0 663d 62d3 bc3c
00000150: 6dac 2bbd 36ca 75bd 1e3e 20bd 9e95 84bd
00000160: b418 c7b9 fca5 0c3a 7bcf 93bb c616 373c
00000170: a274 823d 0de4 113c 64a1 7b3c 6751 a63d
00000180: e9f3 1fbd d98d e0bb 01ee 8e3d e4ed b3bc
-0.018540684 0.024572253 0.034226816 -0.028420685 -0.016715225 -0.057677455 0.034876455 -0.00062517566
0.032046806 -0.068151295 -0.0068544536 -0.04585918 0.030058868 0.057774767 0.0021609275 0.027008878
0.028652167 0.07820828 0.021921385 0.037515458 0.006039877 0.032119144 -0.043496452 0.013881703
-0.05683237 0.046517752 0.014797749 -0.029056272 -0.045476023 -0.03642818 0.008645698 0.034373585
0.014179697 0.053735532 0.07375905 -0.033747103 -0.09231382 0.019896615 0.054571528 -0.042574238
-0.012868061 -0.008522352 -0.024120847 0.014557215 0.045524828 0.098236345 -0.03755877 -0.015743356
0.06262116 -0.042722974 -0.050788634 0.0072664465 -0.049155585 0.037010033 -0.04896047 0.02972868
0.015284489 -0.045994956 0.053579446 -0.045491986 0.06525001 0.0551913 0.011567812 0.05096601
-0.06322521 -0.010028663 -0.04238607 -0.039648764 0.0027859071 0.044189826 -0.07683288 0.066606425
-0.004681582 0.013869883 0.015160012 -0.076181404 -0.012950328 0.011013666 -0.012249169 -0.021273272
0.056660026 -0.06796766 0.056335613 0.023050014 -0.041912485 -0.060007297 -0.03912174 -0.0647385
-0.00037974643 0.000536531 -0.0045108176 0.011174863 0.06369902 0.008904469 0.015358303 0.08120995
-0.03905097 -0.006852847 0.069789894 -0.021964021

i2o.weight f4 [100, 300]
00000000: e70f 4dbd 6fa8 8bbb e3ab 083a 22cc 44bd
00000010: c46b cfb9 0f57 45bd 466f 6e3c 62db 5dbd
00000020: 6005 3d3c 1c88 20bc 4b18 9ebc 3fda 4d3d
00000030: 7f2d 71bc 71fd f83c e94b 6d3c 342e 7b3b
00000040: acfd bebb 25ec 9b3c d627 953c dda0 f6bc
00000050: 20e9 eb3a 64e6 6fbc c523 dd3c d703 37bd
00000060: 8c80 533a 7fdd 3ebd 4da0 063d 9cee cfbc
00000070: 0f2d 3dbd 287a 3bbd ec0f 803c 2779 513c
00000080: 3b33 123c 251a 073d 62b7 0f3d 7d4f d4bc
00000090: 1048 95bc 7bc5 fa3c fad1 4cbd 30c8 76b9
000000a0: e476 22bb 3fbb 783b bc5d 1abc 995e 90bc
000000b0: d0c7 baba 960a 203d b365 693d 8b1a a23c
000000c0: 2c1a 80bc 8af0 283b d1dc 7cbd 3300 43bd
000000d0: 38f7 75bd 5052 b6bc 8881 34bd ae18 283c
000000e0: 4ac3 083c 75c5 063d eb96 e1bc 9f7d 0c3c
000000f0: 617e 063d 5097 c0bc a1cd 1a3d 3567 7bbc
00000100: 37eb bdbc 2643 8bbd f228 1cbd a388 dabc
00000110: 634e ba3b 7f29 3a3d 4e63 a13c 6869 3bbd
00000120: 5b5a f7bc e983 ccbc 2c30 043d 70df 633d
00000130: 6fa2 773b 1750 f83c 4178 a0bb ed67 953c
00000140: f59e a8bc 8627 eb3c ce81 a73c ea72 233d
00000150: 2dcc 18bd 91b7 15bd 7d0a 46bb 78af 3bbc
00000160: a422 363d 73fc 6ebd a467 a73c 5b5d deb8
00000170: 0f03 a13c 6481 e93c 965f 193c 2923 763d
00000180: 17b9 153b 98f4 f03c f156 01bd e4b8 27bd
00000190: cfea 1cbd eb95 5abd c945 783d 15b1 9fbb
000001a0: 8308 4f3a 15f8 9fbc a699 0e3d 2463 ff3c
000001b0: f1e8 16bd 5d52 a23c 9f36 643b edf1 993c
000001c0: 5612 d53c ffc4 38bd 1e68 e03c 2491 01bd
000001d0: 2023 c5bc 04bd ef3c 0662 723d 601e 78bd
000001e0: 015f fbbc a443 c1bc 13b2 d13b f8f4 af3c
000001f0: 3e77 323d fbfe 5d3c 0e0f 2f3d cb38 48bc
00000200: c726 4ebd 3c20 26bd b7ce dabc 27c2 42bd
00000210: 7145 263d e50f fcbc d782 32ba a838 ef3c
00000220: 4805 cbb9 5667 613c d5fb d6bb 4f00 a7bc
00000230: 0caa 6cbd ef48 9d3c a7c3 223d 6554 edbc
00000240: 5fff 423d ed5e a73c 729a de3c 9298 b53c
00000250: 03a3 1e3d 6899 fb3b 4837 54bd cd8a 27bd
00000260: 56fc 31bd ca01 aa3b 11cf 4c3c 6b93 8fbc
00000270: 5e30 ca3c 2ddd 783d aea9 51bd 0150 1f3d
00000280: 60a4 7a3c c9a5 cfbc fe20 59bd 30af 213d
00000290: d540 e03c b290 36bd d3c7 e83c 50dc 1dbd
000002a0: 3f9c 1e3d b90b fd3c 6914 5fbd 3504 623d
000002b0: 3e30 d8bc 2510 f5bc 970d a4ba 4311 87bc
000002c0: 6ca4 15bd cd91 133d e8af 46bd 857c c03c
000002d0: 2b7d 05bd e99d 2a3d 6f1a be3c 2e33 ed3c
000002e0: 29f6 523d a913 babb 52e2 52bc 3c21 623b
000002f0: a831 933b 965a 493b cd6e 39bd a827 91bc
00000300: e665 673d b5da d83b e7c8 13bd a7b3 f9bb
00000310: 36f8 613d 34c7 18bd 04a8 7abd 3315 ad3c
00000320: 76bc fcbc 3e59 76bb 5dbf 493d 5d2e fd3b
00000330: 5614 163d c942 aa3c 3a54 16bb fed4 ba3c
00000340: 4584 613c 61ab 463d a37f b7bc 2979 31bd
00000350: 9d13 c73c f258 7bbc 342d 14bc 57da a6ba
00000360: 64dc 683c 40c1 3a3d cebc ea3c 90bf 353b
00000370: 54f8 933b 3c35 113d 769f 19bc 5b66 e2bc
00000380: b5b1 a3bd 86ef 343d b645 8a3c e739 273d
00000390: 5859 b2bb ccd1 f83c cfa4 613d 7911 84bc
000003a0: d8b3 4cbb 72b3 da3c 9cf7 983c 1cae 8cbc
000003b0: 25b9 003d 717f bc3c 1448 fa3c e931 e53c
000003c0: b4f5 7fbd 6194 8bbc b8b9 8abd 32c3 ca3c
000003d0: ad0e dabc f8ca fcbc 0dec f6bc 907c 5a3d
000003e0: 5e87 193d e503 27bd 1a4e 2bbc f3d3 b1bc
000003f0: 169c 053d d32e c93c 48c6 fbbc 63d7 e33c
-0.050063994 -0.004262022 0.00052136014 -0.04804624 -0.00039562408 -0.04817873 0.014552897 -0.054164298
0.011536926 -0.009798076 -0.019298693 0.050256964 -0.01472032 0.030394288 0.01448343 0.00383271
-0.00582858 0.0190335 0.018207472 -0.030106002 0.0017998554 -0.014642332 0.026994595 -0.044681396
0.0008068166 -0.046597954 0.03286772 -0.025382333 -0.04618555 -0.045770794 0.015632592 0.012785233
0.008923347 0.032983918 0.035086997 -0.02591681 -0.018222839 0.030611744 -0.050004937 -0.00023534964
-0.0024790103 0.0037953404 -0.009421762 -0.017623233 -0.0014250223 0.039072596 0.056981754 0.019788047
-0.01563748 0.0025778138 -0.061734024 -0.047607612 -0.06005022 -0.022256047 -0.044068843 0.01025979
0.008347342 0.032903153 -0.027537784 0.008574872 0.032835368 -0.023509651 0.03779376 -0.015344431
-0.023183448 -0.06799917 -0.038124986 -0.026676482 0.005685614 0.04544973 0.019700672 -0.04575482
-0.030194452 -0.024965243 0.032272503 0.05563301 0.0037786027 0.030311627 -0.004897148 0.018238032
-0.02058361 0.02870537 0.020447638 0.039904512 -0.037304092 -0.036552016 -0.0030218654 -0.011455409
0.04446663 -0.058346223 0.020435162 -0.00010603174 0.019654779 0.028504081 0.009361168 0.060092125
0.0022845918 0.029413506 -0.031577054 -0.04094781 -0.03830987 -0.05336563 0.060613427 -0.0048734047
0.00078976917 -0.019527474 0.0348145 0.031175204 -0.036843244 0.019814664 0.0034822596 0.018792117
0.02600972 -0.045109745 0.027393397 -0.031632558 -0.0240646 0.029264934 0.059175514 -0.060575843
-0.03068495 -0.023591824 0.006399402 0.021479115 0.04357075 0.013549562 0.042738967 -0.012220572
-0.05032995 -0.040558085 -0.026709897 -0.04754844 0.04059357 -0.030769298 -0.0006809658 0.02920182
-0.00038723112 0.013757547 -0.0065607824 -0.02038589 -0.057779357 0.019199817 0.03973737 -0.028970907
0.047606822 0.020431006 0.027173255 0.022167478 0.03872968 0.0076781996 -0.051810533 -0.040903855
-0.043453537 0.0051882016 0.01250054 -0.017526349 0.024681266 0.060757805 -0.05118721 0.038894657
0.015297979 -0.025347607 -0.05300998 0.039473712 0.027374664 -0.044571586 0.028415596 -0.038540184
0.038723227 0.030889379 -0.054462824 0.055179793 -0.026390191 -0.029914925 -0.0012516257 -0.016487723
-0.036533758 0.03602772 -0.0485076 0.023496876 -0.032590073 0.0416545 0.023205964 0.028955068
0.051504288 -0.005678613 -0.012871342 0.0034504673 0.0044920035 0.003072416 -0.045271683 -0.017719105
0.056493662 0.006617869 -0.036080267 -0.007620293 0.055168353 -0.03729935 -0.06119539 0.021128273
-0.030851584 -0.0037589814 0.049254764 0.007726474 0.036640488 0.020783799 -0.0022938387 0.02280664
0.013764446 0.048503283 -0.02239973 -0.043328438 0.024301345 -0.01534103 -0.00904398 -0.0012729865
0.0142127015 0.045594454 0.028654482 0.0027732588 0.004515687 0.03545116 -0.009376397 -0.027636698
-0.07992879 0.04417374 0.016878944 0.040826704 -0.0054427795 0.030373476 0.055088814 -0.016121613
-0.0031235125 0.026696894 0.018672757 -0.017172866 0.031426568 0.023009988 0.030551948 0.0279779
-0.06249018 -0.017038526 -0.06773704 0.02475128 -0.026618326 -0.030858502 -0.030141855 0.05334145
0.03748261 -0.0407752 -0.010455633 -0.02170751 0.03261956 0.02455846 -0.030734196 0.027812665

i2o.bias f4 [100]
00000000: fb84 253d f0ce c03c b2a8 df3c dd97 733d
00000010: 292e 4a3d 1ec8 013d 50b0 cebc 0e22 8c3d
00000020: f8f6 0c3c c2d9 e03c e980 103c 9c8b 61bd
00000030: 3b31 a63b 86fd 3ebd f538 26bd eb8a 673c
00000040: 1018 21bd 3277 e93c c500 0d3d c01c b1bc
00000050: 4d0f d2bc 0d08 45bc 4145 ecbb 7589 793d
00000060: 4635 253c 2bee 72bd 4000 6a3c e402 9d3c
00000070: 5480 a53c 64ce 713c e981 edbb 94c7 1f3d
00000080: 4be7 5f3c a635 79bd 0dcd 803c e0f4 8e3a
00000090: 9bef a73c 7ac1 10bd c7d2 58bd c783 1e3d
000000a0: e3be 233d 9bfb 83bc d302 ce3b 9ce6 18bd
000000b0: 8e86 22bd 526b 0a3c 54c0 5bbc 9192 e83c
000000c0: 1b8e 653d 8ff9 c73c ca63 653c 6d18 3a3a
000000d0: 0730 4e3d d058 2d3c b01a 22bd 3a67 81bc
000000e0: 053f 363d a5bd 593d d5db 08bb f46e 573b
000000f0: 245d a9ba f197 62bd dead 48bc 0762 173d
00000100: 05d0 b1bc 6ba1 283d 9185 64bd e3ee 503d
00000110: d68b 39bd a820 063c 9762 1a3d 9ee9 6f3d
00000120: ec42 873c 723f 913c dbf9 e33c ab09 81bd
00000130: a56b 4d3d 69cb 87bc 62a5 7abc 0d1c cbbc
00000140: 59a8 503d 10fd 443d 8a1b b9bc 3731 323c
00000150: 38aa d6bb 38e5 eebb 05e8 3e3c 7a91 94bd
00000160: dc95 95bc 5e5a a73c ef9e e53b 1f2c 70bd
00000170: 2546 49bb cee5 b1bb 60a7 1dbd 1a04 823b
00000180: 7830 75bc e7e4 e43c 46a4 44bd 04b6 a2bc
0.040410023 0.023536175 0.02730212 0.059471 0.049360428 0.031684987 -0.025230557 0.06842433
0.008603804 0.027447585 0.008819797 -0.055064783 0.0050717867 -0.046628498 -0.040581662 0.014132242
-0.03932959 0.02849922 0.034424562 -0.021620154 -0.025642062 -0.012025845 -0.007210404 0.060922105
0.010083502 -0.059309166 0.014282286 0.019166417 0.020202793 0.01475868 -0.0072481525 0.039008692
0.013665984 -0.06084218 0.015722776 0.0010906719 0.020499995 -0.035340764 -0.052935388 0.03869989
0.039976966 -0.016111186 0.0062869578 -0.0373293 -0.039679103 0.008448439 -0.013412554 0.0283902
0.056043725 0.024410991 0.014000842 0.00070989766 0.05033877 0.010580257 -0.039576232 -0.015796293
0.044493694 0.053159375 -0.0020882983 0.003287253 -0.0012921435 -0.055320684 -0.012248484 0.03695872
-0.021705637 0.041169565 -0.05579144 0.05100907 -0.045299374 0.008186497 0.03769168 0.058572404
0.016511403 0.017730448 0.027829101 -0.06300672 0.050151486 -0.016576486 -0.015298219 -0.02479365
0.0509418 0.0480929 -0.02259614 0.010875992 -0.0065510534 -0.0072905086 0.011651997 -0.0725431
-0.018259935 0.020428833 0.0070074718 -0.058635827 -0.0030711975 -0.005429006 -0.0384897 0.003967774
-0.014965169 0.02794118 -0.048008226 -0.019862182

o2o.0.weight f4 [100, 200]
00000000: 0573 4a3c 4b11 883c 0a81 adbc 69a4 a53c
00000010: a12c 84bd 2d70 0e3d 002d 423d 105f 50bd
00000020: 316d 073d 9d3f 823d 8dee 3ebd 6e7f 06bc
00000030: deb6 e3bb d653 243d 7174 69bd 3673 1dbc
00000040: 5984 c5bc aa36 543d 6272 243c 24f8 323d
00000050: 10c4 5bbd 368c a13b dd7e 523d 6856 0ebd
00000060: be3a 86bc 194b 2b3d 4900 593d 28f9 293d
00000070: 7163 84bd cb0e 54bd e2c1 16bc c439 6d3d
00000080: 3bae cc3c 1752 363d 5a3f 383d 6ab6 07bd
00000090: f430 4b3c 030b 3b3d 33bf b4bc f7e9 e83c
000000a0: d4b2 4e3d 3c24 37bc dddf 85bd 54f0 5dbc
000000b0: aad7 6dbb 9bc7 533d 1c15 403d e8eb 4aba
000000c0: e96f 8f3c 155b 163d f6e4 013d 8e80 423d
000000d0: e29c 5a3d 2da5 df3c 0f22 783c bcd1 59bd
000000e0: ea40 4e3c 44cf b43b 7d64 debc 35df 98bc
000000f0: 989f 403d ea90 d7bc 7fdd 0bbd 2609 43bd
00000100: 36e0 5ebd 602a 803d 9565 52bc 4c9a 02bd
00000110: 5af9 dc3c 1edb 4fbc 48d9 bdbc 8af9 55bb
00000120: 2b38 f1bb b781 7b3d 6c2c e13c 77d5 9ebc
00000130: 1599 5abc 3ae6 d23c 6463 13bd 5c81 453d
00000140: 493e df3c a3e4 053d 830f 1e3d 8ddb ccbc
00000150: 01e9 d23c dcd9 3dbd 877e 2ebd dcd6 ebbc
00000160: c8af 6d3b 4194 6b3c ff31 103d 0583 21bd
00000170: 19e9 873d cb5b 4a3d 91dd 1b3c 6b57 693c
00000180: 7f4d 2ebc 7b50 2b3d 810b 63bd 8a2b 423d
00000190: 8467 52bd ec50 cabc bd96 f53c d3de 15bc
000001a0: c3da 733d d1a6 0abd 017e 13bd 5a48 81bd
000001b0: 790b ac3c 4cdc 243d a13a f23c f442 f13d
000001c0: 2c59 c7bc a187 843d dabe af3c a047 bf3c
000001d0: 93b8 0ebd ace6 fd3c 3caf dd3b c4dc 603c
000001e0: b6a4 173d 38e8 bebc 24b3 abbd a4b1 d4bd
000001f0: a4cd f4bc 3526 ae3c 08b3 c33b 5265 21bc
00000200: 617a 06bd 98c5 073d e331 033d 3ef4 85bc
00000210: fcd7 883d 100d 953c 4e50 83bc b20e eebc
00000220: e872 a63c 74e5 1bbc 4d2b 89bc 45a9 0cbd
00000230: c537 023d cac7 593d 7705 11bc dc24 233d
00000240: 90a8 1cbd cb59 37bc aa46 a73c 68e6 d2bc
00000250: 74ec 7b3d 0496 81bc 2bd7 623d 2714 0d3d
00000260: 31e5 39bd 8ba1 25bd 0501 21bd 5cf1 1b3d
00000270: 632c 753c 2e49 8dbd 7f8d 16bb 1010 843d
00000280: c7ab cd3a 71c9 80bb 2131 4ebd 61f4 753d
00000290: 313e 70bd f378 4abc 2102 cd3c 77de 8bbc
000002a0: 52ab 743d 5358 f63c 7b57 92bc abc4 e53b
000002b0: 3b30 703d f25b 423d 8f27 69bd 68cd 823c
000002c0: 2fa3 113d 5ef7 bcbc 636d 663d a81b 26bd
000002d0: c28a 4f3d abbf efbc 97d9 413c db58 80bc
000002e0: 59b7 6e3d 295d 4a3d be9b f73c 878a 453c
000002f0: 2f76 c8bc 3ed8 823d e06a 433d 00e6 023c
00000300: 2cd1 1b3d 8017 ff3c 3a92 e4bb e861 a43d
00000310: 633a 873d 01a9 253c ce97 153d dc22 acbd
00000320: 3191 13bd d0a4 28bc 5e36 6fbb cdf1 d93c
00000330: 7bbd 233c fbc5 6fbc 6887 b6bb 9798 40bd
00000340: f3ec 0b3d 92d1 ad3d e793 e4bc 739b 1abd
00000350: 389b 12bd 029c 7e3d 2520 01bd ddf6 f33b
00000360: 0550 24bb 3f92 8ebc 2348 b73d dad5 34bd
00000370: 4a74 52bd b3e3 bcbc 043f 5a3d c31e 853d
00000380: 43a3 a23c 4537 0cba 2ccc 863d a322 283b
00000390: 12a4 e73b 0573 83bc 2ca1 a3bd 2480 343d
000003a0: a9ce 843d 11aa dfbc d7f8 0bbc ddc2 a73d
000003b0: 0699 cebc eeab c1bc 189a 0dbd c231 713c
000003c0: 6284 61bd c3f8 6d3d b5f9 4abd 4ba7 f0bc
000003d0: 8de3 ec3c 0f4e 7fbc 1643 fcbb 1eca 59bd
000003e0: 3918 323c 064f b3bc 7b00 02bc 5010 5cbd
000003f0: 1b49 813b 6d9e 45bd a17f 5ebd 35b3 bcbc
0.012356524 0.016609808 -0.021179695 0.020219998 -0.06453825 0.034774948 0.047406197 -0.05087191
0.033063117 0.063597895 -0.04661422 -0.008209093 -0.0069492897 0.040119015 -0.056995813 -0.009609988
-0.02411096 0.051809944 0.010037037 0.043693677 -0.053653777 0.0049300445 0.051390518 -0.034750372
-0.016385432 0.041819666 0.052978788 0.04149738 -0.064642794 -0.05177192 -0.009201499 0.057916418
0.024985423 0.04451188 0.04498229 -0.033132948 0.012401808 0.0456648 -0.022063827 0.028431876
0.050463513 -0.011178073 -0.06536839 -0.013546068 -0.0036291876 0.05170403 0.04689513 -0.0007740841
0.017509418 0.036707956 0.031712495 0.04748588 0.05337227 0.027300442 0.015144839 -0.053178534
0.012588719 0.005517872 -0.027147526 -0.01866112 0.0470272 -0.026314218 -0.034146782 -0.047616147
-0.054413043 0.062580824 -0.012841602 -0.03188543 0.026974369 -0.012686519 -0.023174897 -0.0032649958
-0.007361432 0.061403003 0.027487002 -0.019388897 -0.013342162 0.025744546 -0.03598346 0.04821907
0.02725138 0.032688748 0.038589012 -0.025007034 0.02574587 -0.046350345 -0.042601135 -0.028788976
0.0036268104 0.014378608 0.03520393 -0.03943159 0.06636257 0.049403947 0.009513275 0.0142420335
-0.010638594 0.0418248 -0.055430893 0.047404803 -0.05136825 -0.02469679 0.029979104 -0.009147364
0.0595348 -0.033850495 -0.03600884 -0.06312628 0.021001564 0.040249154 0.029568972 0.117803484
-0.024334513 0.06471182 0.02145331 0.023349583 -0.034843992 0.030993782 0.0067652743 0.01372451
0.037022315 -0.02330409 -0.08383778 -0.10385445 -0.029883213 0.021258453 0.00597227 -0.009850817
-0.032831553 0.033147424 0.032029998 -0.016351815 0.06681821 0.018194705 -0.016029503 -0.029059742
0.020318463 -0.009515155 -0.01674428 -0.034341116 0.031791467 0.05316905 -0.008851401 0.039830074
-0.03824669 -0.011190842 0.020419437 -0.025744632 0.061504796 -0.015818603 0.05538098 0.034443047
-0.04538459 -0.040437263 -0.039307613 0.038071975 0.014964196 -0.068987235 -0.0022972522 0.06448376
0.0015691452 -0.0039302637 -0.05033982 0.06004751 -0.05865306 -0.012357938 0.02502543 -0.017073853
0.059733696 0.030071413 -0.01786398 0.00701197 0.058639746 0.047450967 -0.05692249 0.015967086
0.035556015 -0.023067173 0.056256663 -0.04055372 0.05066944 -0.0292662 0.011831663 -0.01566737
0.058280323 0.04940525 0.03022563 0.012056953 -0.024470417 0.06388901 0.047709346 0.007989407
0.03804128 0.031139135 -0.0069754394 0.08026487 0.06602933 0.010111094 0.036521725 -0.084050864
-0.036027137 -0.010293201 -0.0036500911 0.026604557 0.009993906 -0.014634605 -0.005570341 -0.04702052
0.03416152 0.08487238 -0.027902557 -0.037745904 -0.03579256 0.0621605 -0.031524796 0.0074452
-0.002507211 -0.01740372 0.08949306 -0.044149257 -0.051380433 -0.023057794 0.053282753 0.06500008
0.01985324 -0.0005348812 0.065819114 0.002565541 0.0070691193 -0.016046057 -0.079897255 0.044067517
0.0648473 -0.027302774 -0.008543215 0.08191464 -0.025219452 -0.023641553 -0.034570783 0.014721336
-0.05505789 0.058098566 -0.049554545 -0.029376647 0.028917098 -0.015582575 -0.007698427 -0.05317127
0.010870033 -0.021888267 -0.007934685 -0.053726494 0.0039454824 -0.04824679 -0.054320935 -0.023034671

o2o.0.bias f4 [100]
00000000: beb4 ad3c ecee a0bc 5701 0c3d 8ba3 503c
00000010: 5136 403d 1e47 84bc e824 83bd 7f86 19bc
00000020: fe1c 923d a30e 92bd a286 3b3d 067f 0fbd
00000030: faa9 14bd 9825 363d 9451 6abd e03b 6ebd
00000040: 7a5d 173c e712 043d 1824 22bd 1c43 4abd
00000050: 987b 86bc f7db 8c3c 3682 7f3d 46e6 faba
00000060: 6470 a03b 96ca 95bc e8ec d93b d97e 85bd
00000070: c77b 52bd 0039 de3c 9d1a d3bc eb9e ca3c
00000080: 9a69 c9bc 1202 fdbc 69f6 94bd 37df f43a
00000090: d131 4a3b 0c2b 753b 3b9e a4bd 655c 89bc
000000a0: c448 1fbd 18e6 0db8 8adc 3c3d 2508 343c
000000b0: ddab 30bd 3819 53bd 01e7 ccbc a9dc 6c3d
000000c0: c1f7 5f3c 9301 31bd 16f4 3d3c 2df2 96bc
000000d0: 676b f3bb f556 f43c 9b51 27bd c91e 913d
000000e0: ca54 4d3d 321b 903d 09e6 113c 31a1 7d3d
000000f0: d465 0abd 9c11 2dbd adfa 84bc e41b 90bd
00000100: 03a5 85bd ae00 7cbd 63d0 473c 7bad 3e3d
00000110: 55f5 333b 8c53 f639 f117 07bd 89ec a53d
00000120: 6df5 c83b 3375 773d f166 7fbd 2c97 803d
00000130: d1c5 433d 42ae 2e3d aca9 733d c90f 03bd
00000140: d0c1 a23d f804 51bb 4d9a 163d 1270 983c
00000150: fc89 3e3d fabc c23c c6b9 adbb 9523 8bbd
00000160: 69fe fc3b 0c32 54bd 0b37 71bd f280 6a3d
00000170: 1f1b bdbc b6f7 77bd 51c5 d53c 04b6 4d3d
00000180: 280b 293c 8add b73c 935e 30bd a2c5 eebc
0.021204349 -0.019645177 0.034180965 0.012734304 0.0469268 -0.016147193 -0.06403524 -0.009370445
0.07134436 -0.07131698 0.045782693 -0.03503325 -0.036294915 0.044469446 -0.057206705 -0.05816257
0.009238595 0.03224459 -0.039585203 -0.049380407 -0.016416356 0.017194731 0.06238004 -0.0019142113
0.0048962105 -0.018285077 0.006650556 -0.06518335 -0.051387575 0.02712679 -0.025769526 0.024733981
-0.024586488 -0.030884776 -0.072735615 0.0018682246 0.0030852447 0.003740969 -0.080379926 -0.01676769
-0.038887754 -3.383131e-05 0.04610876 0.01098827 -0.04313265 -0.051537722 -0.025012495 0.057827625
0.013669909 -0.043214392 0.011593839 -0.018426025 -0.007428575 0.02982662 -0.04084931 0.0708595
0.05012969 0.07036437 0.008904942 0.061921302 -0.033788517 -0.04225312 -0.016232813 -0.0703657
-0.06525614 -0.061524086 0.012195679 0.046552163 0.0027459462 0.00046983024 -0.032981817 0.08101756
0.0061327727 0.060414504 -0.062354032 0.06278834 0.047796074 0.042646654 0.059487984 -0.031997476
0.07947123 -0.003189383 0.036768246 0.018608127 0.04651831 0.023771752 -0.005301687 -0.06793896
0.0077207577 -0.05180554 -0.058890384 0.057251878 -0.023084221 -0.06053897 0.026095064 0.05022241
0.010317601 0.022444505 -0.043058943 -0.029146973

o2o.2.weight f4 [100]
00000000: 4aee 883f 76ef a03f a336 983f 8444 9d3f
00000010: dd18 8e3f d4c6 943f bf1b 983f 7394 9f3f
00000020: 965e 953f e5dd 983f f467 953f 64e0 953f
00000030: 98aa 8b3f 8536 8d3f 42a5 8f3f 0835 933f
00000040: 615e 963f 62d2 983f dde1 923f 043e 933f
00000050: 1bc3 963f 2f03 9b3f a759 983f 2e32 993f
00000060: b409 953f d8f1 983f 49ea 8d3f 2f83 8f3f
00000070: 539f 9f3f 5918 9d3f cef2 953f 2933 953f
00000080: 2782 8e3f 407a 923f 4fee 963f c1cc 9c3f
00000090: 028e 953f 9462 8f3f a89a 963f 6e1f 893f
000000a0: 6b40 a53f 2c68 8f3f d61c 933f 0f93 8f3f
000000b0: 6a7e a43f 07b1 8f3f e866 943f 02af 913f
000000c0: 1575 a03f 77f5 863f 7887 953f 524a 933f
000000d0: 38a0 973f 80af 943f 79d8 993f ae4e 9b3f
000000e0: 02a9 923f 3f3a 923f 7d57 8d3f 9072 8d3f
000000f0: b92b 9b3f 8060 9d3f 075e 913f 1d67 9a3f
00000100: 0b8f 8f3f 5dcb 993f e911 a23f 80e3 a63f
00000110: ed72 983f 4a8f 9e3f 8eae 933f aab9 a13f
00000120: 12a5 963f 6f4d 983f b97d 8d3f be5d a13f
00000130: e231 9c3f affa 9b3f bef8 903f 4051 9a3f
00000140: 2f67 a63f 8d15 9c3f 9fc2 943f 4454 913f
00000150: cf4f 983f 5745 953f 9486 9a3f 9039 963f
00000160: 8dae 903f e0da 893f 67e2 9b3f 9d7b 9b3f
00000170: cd4a 893f 0f32 983f 88cb 9c3f 7aa0 993f
00000180: 0377 9a3f 1677 9e3f 1c83 933f 0228 983f
1.069772 1.2573078 1.1891674 1.2286534 1.1101338 1.1623178 1.1883467 1.2467178
1.166949 1.1942717 1.1672349 1.1709104 1.0911436 1.1032263 1.1222308 1.1500559
1.1747552 1.1939204 1.1475178 1.1503301 1.1778291 1.2110347 1.190236 1.1968439
1.1643586 1.1948805 1.1087123 1.1211909 1.2470497 1.2273055 1.1714723 1.1656238
1.1133469 1.1443558 1.1791476 1.2249986 1.1683962 1.1201959 1.1765947 1.0712717
1.2910284 1.1203666 1.1493175 1.1216754 1.2851079 1.12259 1.1593904 1.1381533
1.2535731 1.054366 1.1681967 1.1507056 1.184577 1.1616058 1.2019187 1.2133386
1.1457827 1.1424025 1.1042324 1.1050587 1.2122718 1.2295074 1.135682 1.2062718
1.1215528 1.2015187 1.2661716 1.3038177 1.1910073 1.2387478 1.1537645 1.2634785
1.1769125 1.1898631 1.1053993 1.2606733 1.2202723 1.2185878 1.132591 1.2056046
1.3000239 1.2194077 1.1621894 1.1353841 1.1899356 1.1661786 1.207232 1.1736317
1.1303269 1.076992 1.2178468 1.2147099 1.0725952 1.1890277 1.2249613 1.2002099
1.206757 1.2380092 1.1524386 1.188721

o2o.2.bias f4 [100]
00000000: 84fc 8f3d 828c fe3b 9ac5 b63d b163 36bd
00000010: 7b8b c63d a8fd 993d 63aa 203d bb81 71bd
00000020: 75b0 cd3d 7d3b 7fbd 4472 1b3e ccc6 a7bd
00000030: 30e0 a23d b209 ae3d 4c68 93bd d68d 9cbd
00000040: eab4 36bc 9609 c33d 4cf2 cb3d 6b2b b8bd
00000050: fbe2 bb3d 0f9d 4a3d f1fd 5cbd 18bd eabd
00000060: f6ff 9a3d 1680 be3c 20ec c73d 3550 95bd
00000070: d6f0 6ebd 94b4 b1bd 289e c7bd 3f6f 653c
00000080: 9238 af3d 4c9d a8bd a89e 58bd e72f e5bd
00000090: d124 343d cc49 8bbd a68c b2bd 3086 a93d
000000a0: 772a 4ebd 6536 973d 687f e73d 903e 7fbc
000000b0: 5aed 7f3d 8a3d b6bd d04b de3d 8c35 c6bd
000000c0: 4212 ccbd 9ee1 93bd a7ef d33d d830 3c3c
000000d0: 6fb2 d53d 8ea0 a63d c72b c2bd 3161 e93d
000000e0: 4ba9 b2bd b17c bf3d 30a3 c9bd 037d d03d
000000f0: 14e0 e13d 07ef 77bd f9f3 b8bd 0927 b5bd
00000100: c75e abbd d5e7 803d e75f 39bc ba2c d93d
00000110: 4155 a93d af05 bc3d a2d1 f9bd feab e1bd
00000120: e166 9abd e35f 8bbd 4744 a9bd ea46 6a3d
00000130: 36cd c8bd 6998 823d 1d6e 91bd 6ce2 89bd
00000140: c4d3 103e 46e8 063e c72b bb3d 45f7 c13d
00000150: f943 3b3d 21ae 3dbc c462 c63c ce21 493c
00000160: bd5b a33d 9052 9bbd e431 f43b 3aac 78bd
00000170: 83be 9ebd 4619 fcbd b0cf b0bd d278 89bd
00000180: e2dd 9fbd 3b5d 27bd b489 c3bd 5979 843d
0.070305854 0.0077682147 0.08924408 -0.044528667 0.096945725 0.07519084 0.039224993 -0.05896161
0.10043422 -0.06231259 0.15180308 -0.08192214 0.079529166 0.08497943 -0.071976274 -0.076442406
-0.011151532 0.09523313 0.09958324 -0.08992656 0.091741525 0.04946619 -0.053953115 -0.11461848
0.07568352 0.023254436 0.09761834 -0.07290689 -0.058335148 -0.08677021 -0.09746963 0.014003574
0.08555712 -0.08233127 -0.05288568 -0.11190777 0.043980423 -0.06801185 -0.08718233 0.08277547
-0.050333466 0.07383422 0.11303598 -0.015578881 0.062482215 -0.088984564 0.10854304 -0.09678182
-0.0996442 -0.072207674 0.103484444 0.011486255 0.10434424 0.08136092 -0.09481006 0.11395491
-0.08723696 0.09349955 -0.09845579 0.10180094 0.11029068 -0.06053069 -0.09030909 -0.08845336
-0.08367687 0.062942185 -0.011314369 0.10604234 0.08268214 0.091807716 -0.121981874 -0.11019133
-0.07539154 -0.06805398 -0.08264976 0.057196535 -0.09804766 0.06376726 -0.071010806 -0.0673264
0.14143282 0.13174543 0.09139209 0.09470991 0.04571912 -0.01157716 0.024217017 0.012276126
0.07976482 -0.07584107 0.0074522365 -0.060711123 -0.07751181 -0.12309508 -0.08633363 -0.06712498
-0.07805993 -0.040860396 -0.09547749 0.06468458
